…
  scores = model.evaluate(x_Test4D_normalize, y_TestOneHot)
  print(scores[1])

  ### 5. 進行預測
  prediction = model.predict_classes(x_Test4D_normalize)
  print(prediction[:10])
  plot_images_labels_prediction("CNN_MNist", x_Test, y_Test, prediction, idx=0)
  import pandas as pd
  p = pd.crosstab(y_Test, prediction, rownames=['label'], colnames=['predict'])
  print(p)
#+END_SRC

#+RESULTS:
#+begin_example
Model: "sequential_1"
_________________________________________________________________
Layer (type)                 Output Shape              Param #
=================================================================
conv2d_1 (Conv2D)            (None, 28, 28, 16)        416
_________________________________________________________________
max_pooling2d_1 (MaxPooling2 (None, 14, 14, 16)        0
_________________________________________________________________
conv2d_2 (Conv2D)            (None, 14, 14, 36)        14436
_________________________________________________________________
max_pooling2d_2 (MaxPooling2 (None, 7, 7, 36)          0
_________________________________________________________________
dropout_1 (Dropout)          (None, 7, 7, 36)          0
_________________________________________________________________
flatten_1 (Flatten)          (None, 1764)              0
_________________________________________________________________
dense_1 (Dense)              (None, 128)               225920
_________________________________________________________________
dropout_2 (Dropout)          (None, 128)               0
_________________________________________________________________
dense_2 (Dense)              (None, 10)                1290
=================================================================
Total params: 242,062
Trainable params: 242,062
Non-trainable params: 0
_________________________________________________________________
None

0.9930999875068665
[7 2 1 0 4 1 4 9 5 9]
predict    0     1     2     3    4    5    6     7    8    9
label
0        977     0     0     0    0    0    1     1    1    0
1          0  1133     2     0    0    0    0     0    0    0
…
