…
#+BEGIN_SRC python -r -n :results output :exports both
  import torch
  from torchsummary import summary
  from torchvision.models import vgg11 # vgg16,19 用GPU跑可能要跑2,3週

  model = vgg11(pretrained=False)
  if torch.cuda.is_available():  # 如果可以就使用GPU計算
      model.cuda()
  summary(model, (3, 224, 224))  # RGB三色，224*224
#+END_SRC

#+RESULTS[b6e060b5a4d2e26d0f92842d26b21e84a0000db6]:
#+begin_example
----------------------------------------------------------------
        Layer (type)               Output Shape         Param #
================================================================
            Conv2d-1         [-1, 64, 224, 224]           1,792
              ReLU-2         [-1, 64, 224, 224]               0
         MaxPool2d-3         [-1, 64, 112, 112]               0
            Conv2d-4        [-1, 128, 112, 112]          73,856
              ReLU-5        [-1, 128, 112, 112]               0
         MaxPool2d-6          [-1, 128, 56, 56]               0
            Conv2d-7          [-1, 256, 56, 56]         295,168
              ReLU-8          [-1, 256, 56, 56]               0
            Conv2d-9          [-1, 256, 56, 56]         590,080
             ReLU-10          [-1, 256, 56, 56]               0
        MaxPool2d-11          [-1, 256, 28, 28]               0
           Conv2d-12          [-1, 512, 28, 28]       1,180,160
             ReLU-13          [-1, 512, 28, 28]               0
           Conv2d-14          [-1, 512, 28, 28]       2,359,808
             ReLU-15          [-1, 512, 28, 28]               0
        MaxPool2d-16          [-1, 512, 14, 14]               0
           Conv2d-17          [-1, 512, 14, 14]       2,359,808
             ReLU-18          [-1, 512, 14, 14]               0
           Conv2d-19          [-1, 512, 14, 14]       2,359,808
             ReLU-20          [-1, 512, 14, 14]               0
        MaxPool2d-21            [-1, 512, 7, 7]               0
AdaptiveAvgPool2d-22            [-1, 512, 7, 7]               0
           Linear-23                 [-1, 4096]     102,764,544
             ReLU-24                 [-1, 4096]               0
          Dropout-25                 [-1, 4096]               0
           Linear-26                 [-1, 4096]      16,781,312
             ReLU-27                 [-1, 4096]               0
          Dropout-28                 [-1, 4096]               0
           Linear-29                 [-1, 1000]       4,097,000
================================================================
Total params: 132,863,336
Trainable params: 132,863,336
Non-trainable params: 0
----------------------------------------------------------------
Input size (MB): 0.57
Forward/backward pass size (MB): 125.37
Params size (MB): 506.83
Estimated Total Size (MB): 632.78
----------------------------------------------------------------
#+end_example
…
